mnist/part2-mnist/mnist_model_fully_connected.pt (torch_old, 39737 bytes, 4 tensors)

weight f4 [10, 784]
0.029524539 -0.0065959916 -0.03499748 0.010275181 0.03306799 0.03104734 -0.035178065 0.03214631
0.010838918 -0.032885548 0.034286972 0.0019782968 0.0064546773 0.017100675 0.010634185 -0.021347977
0.020449877 0.025263056 -0.018410351 0.017258234 -0.00635048 -0.023161229 -0.01373045 -0.0041809976
-0.01964582 0.020075407 0.021033224 -0.016925652 -0.022170514 6.366521e-06 0.007818669 0.021394163
-0.0046787 -0.022841763 0.0062181284 0.04351199 0.053194553 0.044266805 0.018608626 -0.003442139
0.022662403 0.005074631 0.047195237 -0.0043434356 -0.05271281 0.012248176 0.010665077 0.02582967
0.020213116 -0.029255997 -0.020300709 0.036302928 0.017784663 0.017311245 -0.01441285 -0.03361085
-0.014531963 -0.022142727 -0.0136575755 0.031976003 0.027371548 0.025329608 -0.0046283863 0.08445132
0.069784515 0.03830251 0.10128245 0.019181903 0.05597267 0.07637818 0.037137385 0.05704711
0.022498952 0.032081712 0.066689104 0.0964943 0.07931305 0.067128316 0.037414126 0.013382613
-0.035344675 -0.05606154 0.0076174624 -0.009508537 0.0050391294 0.00898996 -0.029846918 0.023414582
0.03650127 -0.030317971 0.065245725 0.115834095 0.11566888 0.04025419 0.038305398 0.013118568
-0.11887393 -0.04928258 -0.07233381 -0.00029445544 -0.10253592 0.061563846 0.2422402 0.16826917
0.052811444 0.13028707 0.17267229 0.10789466 -0.017324327 -0.07124411 -0.018048361 -0.027034437
-0.035658382 -0.024015712 0.019216731 0.009014392 -0.007377921 0.042915937 -0.039138533 -0.034313545
-0.041046634 -0.12282249 -0.16134848 -0.06847568 -0.10504901 -0.056998704 -0.14410263 -0.14163467
-0.02788262 0.06872566 0.03538176 0.12895916 0.18713966 0.16343567 0.29157078 0.29928887
0.080081135 -0.03869847 0.01052511 0.040337723 0.009938613 -0.02930844 0.013769179 -0.015657434
-0.030439785 -0.0411938 -0.0922581 -0.0664721 0.013676911 -0.03663483 -0.07200071 0.112708524
0.039674245 -0.049772784 -0.044255905 -0.16029212 -0.22359571 0.028118035 -0.14705907 0.028596336
0.10781412 -0.096046984 0.066673726 0.1468465 0.2415146 0.031343646 0.046709534 -0.012113805
-0.034922957 -0.022885766 0.02124609 -0.047470156 -0.016322253 -0.050663553 -0.062496535 0.0052523934
0.004381814 0.031391077 -0.21014974 0.0026685542 -0.019491224 -0.1112269 0.032832358 0.07187163
-0.083566435 0.0015489365 -0.13968904 0.116011865 0.060896862 -0.13790427 -0.022877248 0.14400885
0.17392784 0.033161536 -0.029716723 0.003408753 0.0045957994 -0.026232002 -0.023612998 -0.08709477
-0.17989096 -0.20171428 -0.2665856 -0.11831893 -0.1769557 0.017929578 0.055978347 -0.10903315
-0.05073719 -0.05152362 -0.0072659673 0.32375976 0.10040385 0.16056886 0.09395987 0.10222365
0.13732448 0.08077253 -0.029681345 0.18044704 0.2512604 0.051160328 -0.014633232 -0.011268219
-0.014570871 -0.02412617 -0.021554999 -0.112889476 -0.14095563 -0.05060362 -0.13415454 -0.022762649
0.044389483 0.1687589 -0.1381674 0.029438293 -0.03174168 0.14117268 -0.011688914 -0.028749082
-0.013697003 -0.043732747 0.078756504 -0.14490253 -0.17419091 -0.058299765 -0.106647775 -0.042228103
0.29147404 0.06931126 0.04107421 -0.016386604 -0.010418034 -0.03009858 -0.039202005 -0.13804027
00000000: 72dd f13c 3023 d8bb 8559 0fbd 3c59 283c
00000010: 4d72 073d fe56 fe3c e016 10bd d9ab 033d
00000020: b895 313c ffb2 06bd 7f70 0c3d 50a6 013b
00000030: c281 d33b b716 8c3c 013b 2e3c f4e1 aebc
00000040: 8086 a73c 78f4 ce3c 4ed1 96bc 2461 8d3c
00000050: b017 d0bb 9ebc bdbc aef5 60bc c000 89bb
00000060: 45f0 a0bc 2e75 a43c de4d ac3c aaa7 8abc
00000070: f09e b5bc 00a0 d536 e019 003c d042 af3c
00000080: c84f 99bb a61e bbbc 71c1 cb3b a139 323d
00000090: 88e2 593d 1c51 353d 1e71 983c 8295 61bb
000000a0: 81a6 b93c 1749 a63b cb4f 413d 6153 8ebb
000000b0: 63e9 57bd 93ac 483c 93bc 2e3c be98 d33c
000000c0: fa95 a53c 46aa efbc ac4d a6bc 61b2 143d
000000d0: 24b1 913c 50d0 8d3c e023 6cbc 88ab 09bd
000000e0: 7817 6ebc aa64 b5bc 06c4 5fbc 45f9 023d
000000f0: 4c3a e03c 0a80 cf3c b8a9 97bb d0f4 ac3d
00000100: 2feb 8e3d 18e3 1c3d 2c6d cf3d 5e23 9d3c
00000110: 9943 653d 2a6c 9c3d 5f1d 183d 3baa 693d
00000120: b94f b83c 1d68 033d 4c94 883d ce9e c53d
00000130: e16e a23d 927a 893d 8e3f 193d bf42 5b3c
00000140: 94c5 10bd c9a0 65bd e89b f93b b2c9 1bbc
00000150: 481f a53b a04a 133c 8681 f4bc f0cf bf3c
00000160: 5b82 153d 655d f8bc 8d9f 853d 6d3a ed3d
00000170: cee3 ec3d 94e1 243d 1fe6 1c3d 43ef 563c
00000180: 2d74 f3bd 88dc 49bd c023 94bd 2461 9ab9
00000190: 5afe d1bd 5f2a 7c3d d10d 783e c14e 2c3e
000001a0: d050 583d f969 053e 01d1 303e e0f7 dc3d
000001b0: bfeb 8dbc 6fe8 91bd 28da 93bc 5377 ddbc
000001c0: 860e 12bd 99bc c4bc 686c 9d3c 1ab1 133c
000001d0: 7dc2 f1bb 9fc8 2f3d ba4f 20bd 5c8c 0cbd
000001e0: 8420 28bd 5c8a fbbd 8938 25be fa3c 8cbd
000001f0: ef23 d7bd 7977 69bd a48f 13be ae08 11be
00000200: 186a e4bc 0ac0 8c3d 77ec 103d df0d 043e
00000210: 8aa1 3f3e ae5b 273e c448 953e 643c 993e
00000220: 9401 a43d 4982 1ebd 8371 2c3c 2b39 253d
00000230: 90d5 223c 4118 f0bc 1f98 613c 0544 80bc
00000240: db5c f9bc d4ba 28bd d1f1 bcbd 8622 88bd
00000250: 1f15 603c 670e 16bd 1c75 93bd bad3 e63d
00000260: 7681 223d 8cde 4bbd ae45 35bd 9e23 24be
00000270: 46f6 64be cb57 e63c a796 16be dd42 ea3c
00000280: a6cd dc3d 48b4 c4bd 3c8c 883d ee5e 163e
00000290: 9a4f 773e 3262 003d 7f52 3f3d fb78 46bc
000002a0: 600b 0fbd ee7a bbbc 480c ae3c 1170 42bd
000002b0: 3fb6 85bc 9684 4fbd 5efc 7fbd 451c ac3b
000002c0: 5295 8f3b ee93 003d 7e31 57be e9e2 2e3b
000002d0: 0fac 9fbc eeca e3bd 397b 063d 6f31 933d
000002e0: e124 abbd af05 cb3a a50a 0fbe a197 ed3d
000002f0: fd6e 793d c736 0dbe 1169 bbbc 0e77 133e
00000300: 241a 323e 64d4 073d 7c70 f3bc 6365 5f3b
00000310: 5c98 963b 7fe4 d6bc 0c70 c1bc be5e b2bd
00000320: 5635 38be 308e 4ebe e87d 88be 3251 f2bd
00000330: e033 35be 0de1 923c 8d49 653d c64c dfbd
00000340: cdd1 4fbd 6e0a 53bd 5a17 eebb d7c3 a53e
00000350: 89a0 cd3d 2a6c 243e 086e c03d a25a d13d
00000360: ca9e 0c3e 116c a53d 4b26 f3bc 1cc7 383e
00000370: 34a5 803e 7e8d 513d 39c0 6fbc 569e 38bc
00000380: aaba 6ebc 3fa4 c5bc 1c94 b0bc 9932 e7bd
00000390: ac56 10be be45 4fbd cf5f 09be bc78 babc
000003a0: bfd1 353d 22cf 2c3e c17b 0dbe 9328 f13c
000003b0: 9003 02bd 928f 103e dc82 3fbc 3283 ebbc
000003c0: 6569 60bc 1c21 33bd 174b a13d 5461 14be
000003d0: 1a5f 32be bccb 6ebd 266a dabd 60f7 2cbd
000003e0: 163c 953e 10f3 8d3d 6e3d 283d 333d 86bc
000003f0: 67b0 2abc 4c91 f6bc 4892 20bd 6e5a 0dbe

bias f4 [10]
0.39549184 0.82555294 -0.2762798 -0.75252867 -0.2926455 0.82684755 0.52986425 0.16102597
1.1235123 -0.05914193
00000000: e87d ca3e 7057 533f 8c74 8dbe b8a5 40bf
00000010: a2d5 95be 48ac 533f 2fa5 073f fee3 243e
00000020: 40cf 8f3f cf3e 72bd

weight f4 [10, 10]
-0.46044785 -0.06749267 0.6146475 -1.243362 -0.6336385 -0.0104243355 -0.08714871 0.04764254
-0.04309763 1.4534975 0.33214927 -1.0685385 -1.905148 0.37052104 1.1675513 0.36716667
-0.8865871 0.17770895 0.89146733 -0.82758665 -1.4281275 -0.2394082 0.7488591 -0.23609129
0.60340273 -0.33985218 0.8619953 0.5446036 0.7499317 0.1661437 -0.6317598 0.50737643
-0.099473596 1.1185255 0.68479604 -0.75459325 0.3047413 0.008322389 0.29418162 0.24012864
0.4958474 0.089751154 0.65664923 0.6977882 -0.6926005 0.2879539 0.94091266 -2.0699186
-0.43931052 -0.93317235 -0.113624714 -0.43283206 -0.15372612 0.99261534 -0.9567632 1.0373889
0.42357904 1.4090286 -0.11739718 0.4223496 0.67381364 -0.71016717 0.34631613 -1.250497
-0.92583287 -1.1375092 -0.7459635 0.7223587 1.0775398 0.32963702 0.3678781 1.4602355
-0.43255827 -1.1660343 0.089121535 0.8569836 -0.58294255 0.4140236 -0.11156184 -1.0769752
0.8016824 -0.7686778 0.41915798 0.4981259 0.4610607 0.020876434 -0.9838798 -0.20996681
-0.7410063 0.46063325 0.53546906 0.66273516 -0.059706036 0.456711 0.2952393 -0.3941813
0.7672038 -0.94573724 -1.9436021 -0.13615112
00000000: d2bf ebbe 9939 8abd 8a59 1d3f 7c26 9fbf
00000010: 2236 22bf d5ca 2abc 067b b2bd d324 433d
00000020: 2487 30bd 350c ba3f 780f aa3e dfc5 88bf
00000030: e4db f3bf efb4 bd3e 5272 953f 45fd bb3e
00000040: 5ff7 62bf 56f9 353e 3437 643f b8dc 53bf
00000050: e2cc b6bf 6c27 75be 3bb5 3f3f eac1 71be
00000060: 9a78 1a3f 1b01 aebe b9ab 5c3f 246b 0b3f
00000070: 86fb 3f3f 9321 2a3e 03bb 21bf 6ce3 013f
00000080: d0b8 cbbd d82b 8f3f cb4e 2f3f 062d 41bf
00000090: 0d07 9c3e a15a 083c f99e 963e 48e4 753e
000000a0: b6df fd3e 74cf b73d 2a1a 283f 3fa2 323f
000000b0: 444e 31bf b26e 933e a7df 703f 8c79 04c0
000000c0: 4fed e0be 62e4 6ebf 13b4 e8bd 2a9c ddbe
000000d0: 616a 1dbe 0a1c 7e3f 6fee 74bf 29c9 843f
000000e0: 5adf d83e 0d5b b43f ef6d f0bd 353e d83e
000000f0: 0d7f 2c3f 84cd 35bf 5950 b13e 4910 a0bf
00000100: 6203 6dbf e799 91bf 77f7 3ebf 80ec 383f
00000110: d3ec 893f 2fc6 a83e 855a bc3e ffe8 ba3f
00000120: 4778 ddbe 9d40 95bf 5a85 b63d 4763 5b3f
00000130: b93b 15bf e7fa d33e 897a e4bd 53da 89bf
00000140: 0f3b 4d3f 11c8 44bf e09b d63e 5c0a ff3e
00000150: 2610 ec3e 0e05 ab3c 8cdf 7bbf 8a01 57be
00000160: 97b2 3dbf 1fd8 eb3e 8014 093f 03a9 293f
00000170: 518e 74bd 06d6 e93e 9b29 973e 22d2 c9be
00000180: 7867 443f d61b 72bf f4c7 f8bf 336b 0bbe

bias f4 [10]
-0.15251894 0.40703386 -0.377475 -0.3523939 0.18032287 0.6345946 0.08640947 -0.19533797
-0.5422186 0.26039103
00000000: ed2d 1cbe be66 d03e 6744 c1be f96c b4be
00000010: 8fa6 383e cb74 223f 73f7 b03d ad06 48be
00000020: d7ce 0abf f951 853e
